…
          "base_uri": "https://localhost:8080/"
        },
        "id": "EpVIoRTbG9wS",
        "outputId": "f4bc98c2-5d5e-491d-e0ab-17eb12af989f"
      },
      "execution_count": 11,
      "outputs": [
        {
          "output_type": "stream",
          "name": "stdout",
          "text": [
            "Model: \"sequential\"\n",
            "_________________________________________________________________\n",
            " Layer (type)                Output Shape              Param #   \n",
            "=================================================================\n",
            " conv2d (Conv2D)             (None, 298, 298, 16)      448       \n",
            "                                                                 \n",
            " max_pooling2d (MaxPooling2  (None, 149, 149, 16)      0         \n",
            " D)                                                              \n",
            "                                                                 \n",
            " conv2d_1 (Conv2D)           (None, 147, 147, 32)      4640      \n",
            "                                                                 \n",
            " max_pooling2d_1 (MaxPoolin  (None, 73, 73, 32)        0         \n",
            " g2D)                                                            \n",
            "                                                                 \n",
            " conv2d_2 (Conv2D)           (None, 71, 71, 64)        18496     \n",
            "                                                                 \n",
            " max_pooling2d_2 (MaxPoolin  (None, 35, 35, 64)        0         \n",
            " g2D)                                                            \n",
            "                                                                 \n",
            " conv2d_3 (Conv2D)           (None, 33, 33, 128)       73856     \n",
            "                                                                 \n",
            " max_pooling2d_3 (MaxPoolin  (None, 16, 16, 128)       0         \n",
            " g2D)                                                            \n",
            "                                                                 \n",
            " conv2d_4 (Conv2D)           (None, 14, 14, 128)       147584    \n",
            "                                                                 \n",
            " max_pooling2d_4 (MaxPoolin  (None, 7, 7, 128)         0         \n",
            " g2D)                                                            \n",
            "                                                                 \n",
            " flatten (Flatten)           (None, 6272)              0         \n",
            "                                                                 \n",
            " dense (Dense)               (None, 256)               1605888   \n",
            "                                                                 \n",
            " dense_1 (Dense)             (None, 512)               131584    \n",
            "                                                                 \n",
            " dense_2 (Dense)             (None, 1)                 513       \n",
            "                                                                 \n",
            "=================================================================\n",
            "Total params: 1983009 (7.56 MB)\n",
            "Trainable params: 1983009 (7.56 MB)\n",
            "Non-trainable params: 0 (0.00 Byte)\n",
            "_________________________________________________________________\n"
…
